{"format": "layers-model", "generatedBy": "keras v2.2.4-tf", "convertedBy": "TensorFlow.js Converter v1.6.0", "modelTopology": {"keras_version": "2.2.4-tf", "backend": "tensorflow", "model_config": {"class_name": "Sequential", "config": {"name": "sequential", "layers": [{"class_name": "CuDNNLSTM", "config": {"name": "cu_dnnlstm", "trainable": true, "dtype": "float32", "return_sequences": false, "return_state": false, "go_backwards": false, "stateful": false, "time_major": false, "units": 50, "kernel_initializer": {"class_name": "GlorotUniform", "config": {"seed": null, "dtype": "float32"}}, "recurrent_initializer": {"class_name": "Orthogonal", "config": {"gain": 1.0, "seed": null, "dtype": "float32"}}, "bias_initializer": {"class_name": "Zeros", "config": {"dtype": "float32"}}, "unit_forget_bias": true, "kernel_regularizer": null, "recurrent_regularizer": null, "bias_regularizer": null, "activity_regularizer": null, "kernel_constraint": null, "recurrent_constraint": null, "bias_constraint": null}}, {"class_name": "Dense", "config": {"name": "dense", "trainable": true, "dtype": "float32", "units": 21, "activation": "linear", "use_bias": true, "kernel_initializer": {"class_name": "GlorotUniform", "config": {"seed": null, "dtype": "float32"}}, "bias_initializer": {"class_name": "Zeros", "config": {"dtype": "float32"}}, "kernel_regularizer": null, "bias_regularizer": null, "activity_regularizer": null, "kernel_constraint": null, "bias_constraint": null}}], "build_input_shape": [null, 63, 1]}}, "training_config": {"loss": "mean_squared_error", "metrics": [], "weighted_metrics": null, "sample_weight_mode": null, "loss_weights": null, "optimizer_config": {"class_name": "Nadam", "config": {"name": "Nadam", "learning_rate": 0.0010000000474974513, "decay": 0.004000000189989805, "beta_1": 0.8999999761581421, "beta_2": 0.9990000128746033, "epsilon": 1e-07}}}}, "weightsManifest": [{"paths": ["group1-shard1of1.bin"], "weights": [{"name": "sequential/cu_dnnlstm/kernel", "shape": [1, 200], "dtype": "float32"}, {"name": "sequential/cu_dnnlstm/recurrent_kernel", "shape": [50, 200], "dtype": "float32"}, {"name": "sequential/cu_dnnlstm/bias", "shape": [400], "dtype": "float32"}, {"name": "sequential/dense/kernel", "shape": [50, 21], "dtype": "float32"}, {"name": "sequential/dense/bias", "shape": [21], "dtype": "float32"}]}]}